best_model.pth (torch, 12315 bytes, 20 tensors)

network.0.weight f4 [24, 35]
0	0x3e0be4fa	0.13661566
1	0x3e2df4c6	0.16987905
2	0x3e1baf87	0.15203677
3	0xbe49024b	-0.19629781
4	0x3d5aeea6	0.05345025
5	0xbdc81f2f	-0.09771573
6	0x3ca69b24	0.020337649
7	0xbca663d6	-0.020311277
8	0xbdfe8960	-0.12428546
9	0xbd9f31af	-0.07773148
10	0xbdf66a6d	-0.12032018
11	0x3e02d17c	0.12775224
12	0x3d96b960	0.07359576
13	0x3cc59a54	0.024121441
14	0xbde55808	-0.11198431
15	0xbe53d9cf	-0.20688556
16	0x3d3a8e84	0.04554607
17	0xbe2c75c3	-0.16841798
18	0xbd556b33	-0.052104186
19	0x3d549733	0.051902007
20	0x3e40c7b3	0.18826179
21	0xbce846e0	-0.028354108
22	0x3caf01d4	0.021363176
23	0xbda0e22b	-0.07855638
24	0xbe1584b4	-0.14601403
25	0x3da8a18e	0.08233939
26	0x3d3727c1	0.044715647
27	0xbdd166ab	-0.102246605
28	0xbe084e81	-0.13311197
29	0xbdb2b785	-0.0872641
30	0x3d96213b	0.07330557
31	0xbe130bd7	-0.14359985
32	0xbcd60208	-0.026124015
33	0x3c9d2e86	0.019187223
34	0xbe237290	-0.15961671
35	0xbd9b80a5	-0.07592896
36	0x3d570177	0.05249163
37	0xbe1228d2	-0.14273384
38	0xbcd79fe8	-0.026321366
39	0x3df939b0	0.12169206
40	0xbe0e87ac	-0.13918942
41	0x3deb2917	0.11482447
42	0x3d3be284	0.04587032
43	0xbc526b2e	-0.012842936
44	0x3e4eb56e	0.20186397
45	0x3df056ae	0.11735283
46	0xbc852134	-0.016251184
47	0xbccbfccf	-0.024900822
48	0x3c8f04d8	0.017458364
49	0x3d6e5325	0.05818476
50	0xbd4698f0	-0.048485696
51	0xbe246fb1	-0.16058232
52	0xbdd1e9f2	-0.102497
53	0xbe2052d1	-0.15656592
54	0xbdb61ab2	-0.088918105
55	0x3da1907e	0.07888888
56	0x3e382456	0.17982611
57	0x3db8b011	0.09017957
58	0x3a81247d	0.0009852793
59	0x3d961bc6	0.07329516
60	0xbd92b1bb	-0.07162806
61	0x3d7332ac	0.059374496
62	0xbd527000	-0.051376343
63	0x3e1c4219	0.15259589
64	0xbe197300	-0.14985275
65	0x3e1d08b9	0.15335359
66	0xbd260f8a	-0.040542163
67	0x3d23ac61	0.039959315
68	0x3d164702	0.036688812
69	0x3dbd8047	0.092529826
70	0xbd75a240	-0.059969187
71	0x3e6eb2d7	0.2331041
72	0xbe09b7a9	-0.13448967
73	0x3dd4ba9b	0.10387155
74	0xbe4ae575	-0.19814093
75	0x3e2c4535	0.16823275
76	0xbdabdbd3	-0.083915375
77	0xbd23942e	-0.039936237
78	0xbd65d2ff	-0.056109425
79	0xbd00fbdf	-0.031490203
80	0xbe471478	-0.19441402
81	0x3e22e956	0.15909323
82	0x3d8c4948	0.06849915
83	0x3ca6b8a0	0.020351708
84	0xbe22acdd	-0.15886255
85	0x3d5962c8	0.05307272
86	0x3e185ca0	0.14879084
87	0xbd28fd61	-0.041257266
88	0xbe0a6a68	-0.13517153
89	0x3dc928d7	0.09822243
90	0x3b10785f	0.0022044403
91	0xbd84aca4	-0.06478241
92	0xbe0b3d28	-0.13597548
93	0xbe016959	-0.12637843
94	0x3d99893d	0.07496879
95	0xbc9f5caa	-0.019453365
96	0xbe0e79f8	-0.13913715
97	0x3d919c41	0.07109881
98	0xbd148ef9	-0.03626916
99	0x3d928095	0.07153431
100	0x3e08c060	0.13354635
101	0x3deed97e	0.11662577
102	0xbdc84072	-0.09777917
103	0xbd44ce7f	-0.048048493
104	0x3b823fd5	0.0039748945
105	0x3de28e81	0.11062337
106	0x3dc28042	0.094971195
107	0xbe5c762f	-0.21529458
108	0xbe5d7fca	-0.21630779
109	0xbe0995dc	-0.13436073
110	0x3d6a7da0	0.05724871
111	0xbd32ed20	-0.04368317
112	0xbdbd1f9d	-0.092345454
113	0xbcfede06	-0.031111728
114	0xbbfc463e	-0.007698803
115	0xbcb72dfc	-0.022360794
116	0xbe11984f	-0.14218257
117	0x3c29a2b5	0.010353734
118	0x3dd6f15a	0.10495253
119	0x3c8d6648	0.017260686
120	0xbdbc1b1f	-0.091848604
121	0x3dded52f	0.10880505
122	0xbe168d3f	-0.14702319
123	0xbd88b8e5	-0.06675891
124	0xbe11a835	-0.14224322
125	0xbd3b5b84	-0.045741573
126	0xbe0b60cc	-0.13611144
127	0x3dc648bc	0.09681842
128	0x3bf4bce7	0.007468808
129	0xbce8ca6c	-0.028416835
130	0x3d8c88f9	0.06862063
131	0xbda68807	-0.08131414
132	0x3dd6f56a	0.10496028
133	0x3d4f3da7	0.050595906
134	0xbd9bd071	-0.076081164
135	0xbe4a1c18	-0.1973728
136	0xbdee896f	-0.11647307
137	0xbd657543	-0.056020033
138	0xbdfba58d	-0.12287436
139	0x3dda2cef	0.10653102
140	0x3ccfbd96	0.025358956
141	0x3dfbd3fe	0.12296294
142	0x3e53f9bc	0.20700735
143	0xbceadba3	-0.028669184
144	0x3e0cde93	0.1375678
145	0x3dd47b82	0.1037512
146	0x3abbe219	0.001433435
147	0xbe03d893	-0.12875585
148	0x3d19a7e5	0.037513632
149	0x3d351a97	0.04421481
150	0x3d1f02ef	0.038821157
151	0x3c1aebd4	0.00945564
152	0x3c649ad3	0.013952929
153	0x3c81d94f	0.015850691
154	0xbdf86abb	-0.12129732
155	0xbde223dd	-0.11041997
156	0xbd3a1c04	-0.045436874
157	0xbdd3f38a	-0.10349186
158	0xbc6d57fa	-0.014486307
159	0xbcbb5a05	-0.022870073
160	0x3d8c29a5	0.068438806
161	0x3e73b9a7	0.2380129
162	0xbe3154c1	-0.17317487
163	0x3e01def8	0.12682712
164	0x3d8ddd52	0.06926979
165	0x3da567e2	0.08076455
166	0x3d1fa335	0.038974006
167	0x3ddb6c94	0.10714069
168	0xbe2de094	-0.16980201
169	0x3d410492	0.0471235
170	0x3d88bc44	0.06676534
171	0xbe0d6bb9	-0.13810624
172	0xbd90f17b	-0.07077309
173	0xbd763a8b	-0.060114425
174	0xbe0f0747	-0.1396762
175	0x3cc4dff4	0.02403257
176	0xbc4b35fb	-0.012403007
177	0xbd4a91c2	-0.04945541
178	0x3dcf3a7d	0.10118578
179	0xbcf04be4	-0.029333062
180	0x3c512a97	0.012766502
181	0xbd9a4c54	-0.0753409
182	0x3c787d39	0.015166574
183	0x3e4151dd	0.18878885
184	0x3a8ac781	0.0010588021
185	0xbdce0af7	-0.10060685
186	0xbe1640f6	-0.14673218
187	0x3ab94cb2	0.0014137237
188	0xbd587963	-0.05285014
189	0x3b8877aa	0.0041646557
190	0xbdb956ce	-0.0904976
191	0xbdb28f5e	-0.08718751
192	0xbdc5cd19	-0.0965826
193	0xbc57e7c4	-0.013177816
194	0xbdd3d33c	-0.10343024
195	0x3d1407a0	0.036140084
196	0x3e28759a	0.16451111
197	0x3d23ae5b	0.0399612
198	0xbe20d4a0	-0.1570611
199	0x3e1cbca8	0.15306342
200	0x3dad236d	0.084540226
201	0xbd3763cf	-0.04477292
202	0xbd96d2b3	-0.073644064
203	0xbd8627b2	-0.0655054
204	0x3e0f15b9	0.1397313
205	0xbcec80f0	-0.028870076
206	0xbe0edd5e	-0.13951632
207	0x3db4b831	0.08824194
208	0xbddd9d4b	-0.10821017
209	0x3dbb7866	0.091538236
210	0xbcc0245c	-0.023454838
211	0x3dac52e1	0.084142454
212	0x3a5ca266	0.0008416533
213	0xbdf61f3a	-0.12017675
214	0xbe1c0cd2	-0.15239266
215	0x3d1c2034	0.03811665
216	0xbc83768d	-0.01604774
217	0x3c843dc8	0.01614274
218	0xbcae7a2c	-0.02129849
219	0x3db76bd4	0.089561135
220	0x3d051fa8	0.032500893
221	0x3e40477c	0.18777269
222	0x3d49a157	0.04922613
223	0x3d870445	0.06592611
224	0xbd2b4af2	-0.04181952
225	0x3bf21e95	0.0073888996
226	0xbd0fe100	-0.035126686
227	0xbdd16987	-0.10225206
228	0xbdce6b9f	-0.10079121
229	0x3d0cfe64	0.034422293
230	0x3dcb638c	0.099310964
231	0x3df9466c	0.12171635
232	0x3bafc712	0.005364307
233	0xbd346f2e	-0.04405134
234	0xbe6a3f43	-0.22875695
235	0xbcc63cc8	-0.024198905
236	0xbce6fa04	-0.028195389
237	0x3d641e4b	0.055692952
238	0xbddb1b03	-0.106985115
239	0x3b71f62a	0.0036920407
240	0xbc716a5a	-0.014734829
241	0xbd215bc6	-0.039394163
242	0x3da92d22	0.082605615
243	0x3e0d1471	0.13777329
244	0xbdcc10c7	-0.099641375
245	0xbc876d0f	-0.016531495
246	0xbe3d2e61	-0.18474723
247	0xbd424cf6	-0.047436677
248	0x3ce30c14	0.02771572
249	0x3dacf0ca	0.08444364
250	0x3dcc464e	0.09974347
251	0xbdd235ea	-0.102641895
252	0xbd800376	-0.0625066
253	0xbdbdab54	-0.09261194
254	0xbce68d6e	-0.02814361
255	0xbdba705a	-0.091034606

network.0.bias f4 [24]
0	0x3dd0266b	0.10163578
1	0xbe0c28b1	-0.13687398
2	0xbda122b3	-0.078679465
3	0xbd67200d	-0.05642705
4	0x3d262c69	0.040569697
5	0xbe2a406d	-0.16626139
6	0x3d5f4eec	0.054518625
7	0xbd99f8a1	-0.07518125
8	0xbd5ecfc1	-0.05439735
9	0x3dae6154	0.085146576
10	0x3db48eda	0.08816309
11	0xbd9c9e6a	-0.076474026
12	0xbc0e68cf	-0.0086919805
13	0x3d2a919e	0.041642778
14	0x3dada30f	0.084783666
15	0x3da3559f	0.07975315
16	0x3dbefd7f	0.09325694
17	0xbda3d1c1	-0.07998992
18	0x3e253cc9	0.16136469
19	0xbdf82894	-0.12117115
20	0x3e0043db	0.12525885
21	0xbe16beff	-0.14721297
22	0x3dcec1d5	0.10095564
23	0x3ce2bbd6	0.027677458

network.1.weight f4 [24]
0	0x3f898bdb	1.0745806
1	0x3f87245d	1.0557972
2	0x3f837bf2	1.02722
3	0x3f9082f3	1.1289963
4	0x3f7e496f	0.993308
5	0x3f72dd21	0.94868666
6	0x3f88556e	1.0651071
7	0x3f78caf9	0.9718471
8	0x3f77251f	0.9654102
9	0x3f926b7e	1.1439054
10	0x3f8d7ed7	1.1054333
11	0x3f8127c3	1.0090259
12	0x3f889434	1.0670228
13	0x3f7e9910	0.99452305
14	0x3f81b2c2	1.0132678
15	0x3f8dd703	1.1081241
16	0x3f834d77	1.0258015
17	0x3f866947	1.0500878
18	0x3f856b12	1.04233
19	0x3f839e3b	1.0282663
20	0x3f87ed87	1.0619363
21	0x3f7bfe17	0.98434585
22	0x3f87e4a0	1.0616646
23	0x3f7bf6b4	0.98423314

network.1.bias f4 [24]
0	0xbd9a90dc	-0.07547161
1	0x3d1c346c	0.03813593
2	0x3e3d6aec	0.18497819
3	0x3dfcd182	0.12344648
4	0xbd518bbd	-0.051158655
5	0x3b10a037	0.0022068152
6	0xbec73ec7	-0.38915083
7	0xbe3610f5	-0.17779906
8	0xbdb03e49	-0.0860563
9	0x3e064aeb	0.13114516
10	0x3c50eb4a	0.01275141
11	0xbe17bb03	-0.14817433
12	0x3de529b6	0.11189596
13	0x3d752107	0.05984595
14	0x3dafc504	0.085824996
15	0x3e336fe1	0.17523147
16	0xbdfd1cb1	-0.12358988
17	0xbdaf88cd	-0.085710146
18	0x3cfa8c62	0.030584518
19	0x3ce782db	0.028260639
20	0x3c4b34c0	0.012402713
21	0xbdbaf0d4	-0.091279656
22	0x3cc95d8a	0.024580736
23	0xbab0ac60	-0.0013479106

network.1.running_mean f4 [24]
0	0x3dc765d2	0.097362176
1	0xbe122db4	-0.14275247
2	0xbdc3c499	-0.095589824
3	0xbd470fea	-0.04859916
4	0x3d285976	0.04110094
5	0xbe361979	-0.17783155
6	0x3cf152a1	0.029458346
7	0xbd6ad876	-0.05733534
8	0xbd18839f	-0.0372349
9	0x3dc0154c	0.09379062
10	0x3da2a370	0.079413295
11	0xbd9281ed	-0.071536876
12	0xbd127df8	-0.035764664
13	0x3d8686c4	0.06568673
14	0x3dbad16d	0.09121976
15	0x3dc86aed	0.097860195
16	0x3d88d43f	0.06681108
17	0xbddb7366	-0.1071537
18	0x3e308933	0.17239837
19	0xbdeb8e70	-0.11501777
20	0x3db4db44	0.08830884
21	0xbe079dcd	-0.1324379
22	0x3d2d15f2	0.042257257
23	0x3bba1a04	0.005679371

network.1.running_var f4 [24]
0	0x3ede7061	0.43445113
1	0x3e35a8bc	0.17740148
2	0x3e902515	0.2815329
3	0x3ef7027e	0.4824409
4	0x3e885c6e	0.26633018
5	0x3e5849ba	0.21121874
6	0x3e3f30f8	0.18671024
7	0x3f0b6d00	0.54463196
8	0x3e7339aa	0.23752466
9	0x3e5804e0	0.2109561
10	0x3ee35be0	0.44406033
11	0x3e5db4aa	0.21650949
12	0x3e8b5125	0.27210346
13	0x3f3b8cac	0.73261523
14	0x3f79e604	0.976166
15	0x3f565aa7	0.83732074
16	0x3e8fd18b	0.28089556
17	0x3f7a0cc3	0.9767572
18	0x3e50b77a	0.20382491
19	0x3ecf27a9	0.40459946
20	0x3eb32421	0.34988502
21	0x3f0790a8	0.529551
22	0x3f1be915	0.6090253
23	0x3ef1512e	0.47132248

network.3.weight f4 [12, 24]
0	0xbd8b82f4	-0.06812087
1	0xbe28bb84	-0.16477782
2	0x3c0db5fb	0.008649345
3	0xbdcf2b1b	-0.101156436
4	0x3e5d936f	0.21638273
5	0xbcfa378d	-0.030544067
6	0x3cd46e1b	0.025931409
7	0xbd8409c6	-0.06447177
8	0x3e2d7306	0.16938409
9	0x3da858f2	0.0822009
10	0xbdf1b40d	-0.1180192
11	0xbe129516	-0.14314684
12	0xbd8ec527	-0.069711976
13	0xbe270897	-0.1631187
14	0xbe1e18a5	-0.15439089
15	0xbcb261bd	-0.02177512
16	0x3e3f5403	0.18684392
17	0x3dd50aa2	0.10402419
18	0x3d1b60e8	0.037934214
19	0xbaa0ece0	-0.0012277626
20	0xbdce4c7d	-0.10073183
21	0x3e689784	0.22714049
22	0xbda81be8	-0.08208448
23	0x3c7f0fb6	0.015567711
24	0xbca538e6	-0.020168733
25	0xbda1468b	-0.07874783
26	0xbe28d54b	-0.16487615
27	0x3ce31cc4	0.027723677
28	0xbcf249e5	-0.029576251
29	0x3dc594a3	0.09647491
30	0x3d61fb59	0.055171344
31	0x3d683a7a	0.056696393
32	0x3ca43166	0.020043086
33	0xbe33fce5	-0.1757694
34	0xbcef7d03	-0.029234415
35	0x3dfbb73c	0.122908086
36	0xbdddd14a	-0.10830934
37	0xbe0669c8	-0.1312629
38	0xbd8b225f	-0.06793665
39	0xbe119c99	-0.14219894
40	0xbd434cea	-0.047680773
41	0xbdc905fe	-0.09815596
42	0xbd416afb	-0.047221165
43	0xbe40f23c	-0.18842405
44	0x3de557eb	0.1119841
45	0xbd9a0626	-0.07520704
46	0x3e2bcc91	0.16777255
47	0xbe0f8407	-0.14015208
48	0x3e6c3ccd	0.23070069
49	0xbe0fc178	-0.14038646
50	0x3e021e54	0.12706882
51	0x3e0d71d7	0.13812958
52	0x3a883ce8	0.0010394128
53	0x3d1b0465	0.037845988
54	0xbdc2d408	-0.09513098
55	0x3d3a7446	0.045521043
56	0xbdb97bab	-0.09056791
57	0xbcac2910	-0.021015674
58	0x3e5c028e	0.2148535
59	0xbd2cc711	-0.042182032
60	0x3e193893	0.14962988
61	0xbdb8c0b8	-0.09021133
62	0x3c49a335	0.012306978
63	0xbd98c42f	-0.07459294
64	0x3d11c262	0.03558577
65	0x3de3f21c	0.11130163
66	0x3db28551	0.08716834
67	0x3e764af9	0.24052037
68	0x3e2b4462	0.16725305
69	0xbd061454	-0.03273423
70	0x3da41310	0.080114484
71	0xbe173364	-0.14765698
72	0x3e3fb625	0.18721826
73	0xbbe1e51f	-0.0068937684
74	0xbdbbd6db	-0.0917184
75	0xbdcf6cd6	-0.10128181
76	0x3e5bcb44	0.21464258
77	0xbe1d5925	-0.15366037
78	0x3d3afc92	0.045651026
79	0xbc58a28d	-0.013222349
80	0xbe1c8998	-0.15286863
81	0x3d150503	0.036381733
82	0xbdb4eea4	-0.088345796
83	0xbd86f95e	-0.06590532
84	0xbe206132	-0.15662077
85	0x3dde766a	0.108624294
86	0xbe2d2106	-0.16907129
87	0x3cf390b9	0.029732095
88	0x3b9a75f8	0.00471377
89	0xbe132c42	-0.14372352
90	0x3ca022ab	0.019547781
91	0x3e15f6c6	0.14644918
92	0x3e50ca10	0.2038958
93	0x3d7342dc	0.059389934
94	0x3dca852a	0.0988868
95	0x3dfd9d39	0.123835035
96	0x3df286d8	0.11842126
97	0x3d677e62	0.056517012
98	0xbd6f357f	-0.058400627
99	0xbe0821fc	-0.13294214
100	0x3e3aae01	0.1823044
101	0x3d220ff8	0.03956601
102	0xbe642a69	-0.22281803
103	0xbd81beb5	-0.063352026
104	0xbda92635	-0.082592405
105	0xbdeda175	-0.11603061
106	0x3c34664f	0.01101072
107	0xbe1f3e62	-0.15551141
108	0xbd8e2944	-0.069414645
109	0xbd24ac07	-0.04020312
110	0x3e1877dc	0.14889473
111	0x3e309eec	0.17248124
112	0xbe598b80	-0.21244621
113	0xbe159e48	-0.14611161
114	0x3e2b0a24	0.16703087
115	0xbd8266e3	-0.0636728
116	0xbd1f055c	-0.03882347
117	0xbe4653e4	-0.19367939
118	0xbe70630f	-0.23475288
119	0xbda26971	-0.079302676
120	0xbde3b4da	-0.11118479
121	0xbcc3ab3a	-0.023885358
122	0xbdcfaa63	-0.101399206
123	0xbe05e640	-0.13076115
124	0x3e3ca49c	0.18422168
125	0x3d2e116b	0.04249708
126	0x3cf7f621	0.03026873
127	0x3e590842	0.21194556
128	0xbc1ab1b8	-0.0094417855
129	0xbe1bc5da	-0.15212193
130	0xbe1e6e57	-0.15471779
131	0xbe2543ae	-0.16139099
132	0xbdda7a98	-0.10667914
133	0xbbe1621a	-0.0068781497
134	0x3d5a04bb	0.053227168
135	0x3c96cfba	0.018409599
136	0x3bbef253	0.005827227
137	0xbdc2fa7f	-0.095204346
138	0x3d1eae3b	0.038740378
139	0x3e208955	0.15677388
140	0x3b4f9d90	0.0031679608
141	0x3dfa4f50	0.12222159
142	0x3da2c60f	0.07947933
143	0xbc8db3cb	-0.017297646
144	0xbc782e30	-0.015147731
145	0x3e43f80b	0.1913759
146	0x3e5c6ab6	0.21525082
147	0x3e2bf479	0.16792478
148	0x3b865159	0.004099053
149	0xbdf4a040	-0.11944628
150	0xbd652e20	-0.05595219
151	0x3dbc329c	0.091893405
152	0xbca0434b	-0.019563338
153	0xbe3b4dd7	-0.18291412
154	0x3e08935c	0.13337463
155	0x3e2b7646	0.16744336
156	0xbe0021ac	-0.12512845
157	0x3cc395ea	0.023875196
158	0x3e2220e4	0.1583286
159	0x3db1967c	0.08671281
160	0x3d83a0d8	0.06427163
161	0xbd0243b7	-0.03180286
162	0x3e9293a8	0.28628278
163	0xbe19913a	-0.14996806
164	0x3d1b2c7f	0.03788423
165	0xbdf6eb33	-0.120565794
166	0x3cdd5619	0.027018594
167	0x3d4f4610	0.050603926
168	0xbd5e1246	-0.054216646
169	0x3cd1f717	0.025630517
170	0x3d2acd71	0.04169983
171	0x3d9db1a9	0.076999016
172	0x3dbb3022	0.0914004
173	0x3d7b27b6	0.06131717
174	0xbe0f8725	-0.14016397
175	0x3d51cdff	0.051221844
176	0x3d93049f	0.07178616
177	0x3e58d46e	0.21174785
178	0x3d3fc224	0.046816006
179	0x3dcb43f7	0.09925073
180	0x3e440cad	0.1914546
181	0xbe54094b	-0.2070667
182	0xbe0290e9	-0.12750591
183	0x3e5abe8b	0.21361749
184	0xbe22da6f	-0.15903638
185	0xbe465d71	-0.19371583
186	0x3d3bd819	0.045860384
187	0x3d8ea0e7	0.069642834
188	0x3cb5d382	0.022195581
189	0x3d18855b	0.037236553
190	0x3e3cd8a3	0.18442015
191	0xbd29ad0b	-0.041424792
192	0x3e1430f5	0.144718
193	0x3d7c05d1	0.061528984
194	0x3d657c9d	0.056027044
195	0x3e01d7e4	0.12680012
196	0x3c3baa4d	0.011454177
197	0x3e194547	0.14967833
198	0xbcd62d82	-0.026144747
199	0x3dfc738e	0.12326728
200	0x3e39017d	0.18066974
201	0xbe0b20aa	-0.13586679
202	0x3d21bb4d	0.039485265
203	0xbdc6ede7	-0.09713345
204	0x3e66e82d	0.22549506
205	0x3dc2dfc6	0.09515338
206	0xbc1bdd6d	-0.009513241
207	0x3dabcc13	0.083885334
208	0x3d936e0d	0.07198725
209	0xbd459f8e	-0.048247866
210	0x3e3a97d7	0.18221985
211	0x3e1e5350	0.15461469
212	0xbdeb4cd5	-0.11489264
213	0xbdff3685	-0.12461571
214	0x3e53a005	0.20666511
215	0xbdb9d11c	-0.090730876
216	0xbe4e2970	-0.20132995
217	0x3df9537d	0.12174127
218	0x3e082fc8	0.13299477
219	0x3e456512	0.19276837
220	0xbc5ab97b	-0.013349886
221	0x3dc4f975	0.09617893
222	0xbd390528	-0.045170933
223	0x3e154f55	0.14581044
224	0x3d8651ca	0.06558569
225	0x3d4742f8	0.04864785
226	0xbe0125e4	-0.1261211
227	0x3e16d188	0.14728367
228	0xbda43f5f	-0.080198996
229	0xbe8aadda	-0.27085763
230	0x3c3d38b2	0.011549162
231	0xbd242498	-0.04007396
232	0x3d919474	0.07108393
233	0x3d4750ed	0.04866116
234	0xbd127101	-0.0357523
235	0xbe049fca	-0.1295158
236	0x3d69c1ee	0.05706971
237	0x3e5b5cae	0.21422073
238	0xbde333d1	-0.110938676
239	0xb9c0d7a9	-0.00036781773
240	0x3dc30903	0.09523203
241	0x3df639b6	0.12022726
242	0xbe3053e0	-0.17219496
243	0x3cfaeb7b	0.030629864
244	0x3da54f53	0.080717705
245	0x3e15e326	0.14637432
246	0xbd90c65e	-0.070690855
247	0x3bdea018	0.006793987
248	0xbd5cd8d7	-0.053917732
249	0xbe2a888b	-0.1665365
250	0xbe215fb6	-0.15759167
251	0x3ca544c2	0.020174388
252	0x390371c6	0.00012535517
253	0xbcd11d62	-0.025526706
254	0x3cf22ecd	0.029563332
255	0xbd17185a	-0.036888458

network.3.bias f4 [12]
0	0xbe0f33d2	-0.13984612
1	0x3e10bfdd	0.1413569
2	0x3da3915e	0.07986711
3	0xbe4134e0	-0.18867826
4	0xbe24b831	-0.16085888
5	0xbe09f88f	-0.13473724
6	0x3de11a71	0.109913714
7	0xbc9134fe	-0.017725464
8	0xbdd891da	-0.10574694
9	0xbe165c0f	-0.14683555
10	0x3df88bb7	0.121360235
11	0x3e2348f1	0.15945794

network.4.weight f4 [12]
0	0x3f810914	1.0080895
1	0x3f8a2b9e	1.0794561
2	0x3f8dc928	1.1077013
3	0x3f6db44e	0.9285325
4	0x3f7bb522	0.9832326
5	0x3f86a2f5	1.051848
6	0x3f8b3eec	1.0878577
7	0x3f99292f	1.1965693
8	0x3f6cfdc4	0.92574716
9	0x3f64759e	0.8924197
10	0x3f83022f	1.0235041
11	0x3f878764	1.0588193

network.4.bias f4 [12]
0	0xbd4cf414	-0.05003746
1	0xbdbf2f22	-0.09335162
2	0xbdb28e38	-0.08718532
3	0x3dcd7dd8	0.100337684
4	0xbe560fb8	-0.20904434
5	0xbda7d383	-0.081946395
6	0x3e4f29ff	0.20230864
7	0xbc3f7cc4	-0.011687461
8	0xbddf79d3	-0.10911908
9	0xbe5ecb4d	-0.2175724
10	0xbe826d89	-0.25474194
11	0x3da9cd26	0.08291082

network.4.running_mean f4 [12]
0	0xbe8873aa	-0.26650745
1	0xbeaa24e0	-0.33231258
2	0x3f1033d9	0.56329113
3	0xbe078ec6	-0.13238057
4	0xbf249c6b	-0.64301175
5	0xbe601eaf	-0.21886705
6	0x3f1029cb	0.5631377
7	0x3ea77111	0.3270345
8	0x3f07f587	0.5310902
9	0xbc2c62d8	-0.010521613
10	0x3d6a1a53	0.05715401
11	0xbe4195f4	-0.18904859

network.4.running_var f4 [12]
0	0x3cb31e9c	0.021865182
1	0x3bf22576	0.0073897196
2	0x3c7f7790	0.015592471
3	0x3ccc648a	0.024950285
4	0x3cd1f919	0.025631474
5	0x3bd419e9	0.0064728153
6	0x3c2fdb61	0.010733456
7	0x3bac0e14	0.0052507017
8	0x3c67ed83	0.014155748
9	0x3d38877b	0.04505108
10	0x3be195da	0.006884319
11	0x3ca6d24e	0.020363953

network.6.weight f4 [6, 12]
0	0x3e63272a	0.22182909
1	0x3dbc9d51	0.09209693
2	0x3e4b8a31	0.19876935
3	0x3e818c27	0.2530224
4	0xbe50693e	-0.20352647
5	0xbe63f380	-0.22260857
6	0x3e44824b	0.19190328
7	0xbe72880f	-0.23684715
8	0x3d7f5bc8	0.06234339
9	0x3dd67e0b	0.104732595
10	0x3c98228b	0.018571159
11	0x3e632c8e	0.22184965
12	0xbb3ce01c	-0.0028820103
13	0x3ca37b2b	0.019956192
14	0x3e9a6f1a	0.3016289
15	0xbdcac08d	-0.099000074
16	0x3de920ff	0.11383247
17	0x3d5a08ba	0.05323098
18	0xbe9e6bd5	-0.30941644
19	0xbe84943d	-0.25894347
20	0xbd904e69	-0.070462056
21	0x3e03cd89	0.12871374
22	0x3d08020e	0.033205085
23	0x3cbbc388	0.022920385
24	0x3e31d665	0.17366941
25	0x3dc72dc6	0.097255275
26	0x3d58d61b	0.052938562
27	0xbd6fb17a	-0.058518864
28	0xbe40fa65	-0.18845518
29	0xbe1666a0	-0.14687586
30	0x3e36468f	0.17800353
31	0x3de159f6	0.11003487
32	0xbdb3bf2f	-0.087767
33	0xbe4d629b	-0.20057146
34	0x3e173bdb	0.14768927
35	0x3e398294	0.18116218
36	0xbe36acd6	-0.17839369
37	0xbd8860c0	-0.066590786
38	0xbdcdf0d4	-0.100557
39	0xbdcea4cf	-0.100900285
40	0xbe63dbc1	-0.22251798
41	0xbe270f75	-0.1631449
42	0x3eaabeb7	0.3334863
43	0x3e6ddb7b	0.23228256
44	0xbe122c3e	-0.1427469
45	0xbe0f4fd4	-0.13995296
46	0x3c1b5c95	0.0094825225
47	0xbe19c7a2	-0.1501756
48	0xbe84642d	-0.25857678
49	0xbe4ebdec	-0.20189637
50	0xbd912477	-0.07087033
51	0xbe653cd6	-0.22386488
52	0x3dad0c85	0.084496535
53	0x3ea0d625	0.3141338
54	0xbda999f4	-0.08281317
55	0x3a143946	0.00056542864
56	0xbe52b340	-0.20576191
57	0xbe58b8fd	-0.21164317
58	0xbd97de5e	-0.0741546
59	0xbe6dec65	-0.23234709
60	0x3dced053	0.100983284
61	0x3e0bff20	0.13671541
62	0x3da3d672	0.079998866
63	0x3b735466	0.0037129163
64	0x3e73fc33	0.23826675
65	0x3e48dba1	0.19615032
66	0xbe135cb2	-0.14390829
67	0xbe7550ab	-0.23956554
68	0x3e36e39b	0.17860262
69	0xbdcad428	-0.09903747
70	0xbe57f0d7	-0.21087967
71	0xbe44119e	-0.19147345

network.6.bias f4 [6]
0	0x3e063bcc	0.13108748
1	0xbe90a24b	-0.2824882
2	0xbe165590	-0.14681077
3	0x3cbc5bd4	0.022993006
4	0x3cfccf02	0.030860428
5	0xbe92e5b0	-0.28690863

network.7.weight f4 [6]
0	0x3fa97e75	1.3241717
1	0x3fa7318e	1.3061998
2	0x3fb72120	1.4306984
3	0x3fc338bf	1.5251693
4	0x3fb70987	1.4299783
5	0x3fb5a48e	1.4190843

network.7.bias f4 [6]
0	0xbe25d1c4	-0.161933
1	0xbe4e2109	-0.2012979
2	0xbe2acfab	-0.16680782
3	0x3eb30e47	0.3497183
4	0x3dcd1907	0.10014539
5	0xbe501b79	-0.2032298

network.7.running_mean f4 [6]
0	0x3efaddc3	0.48997316
1	0xbeb1daa6	-0.34737128
2	0x3b096b75	0.002096859
3	0xbe937f55	-0.28808084
4	0xbf0b16e7	-0.5433182
5	0xbe8d6a1a	-0.27620012

network.7.running_var f4 [6]
0	0x3c8c182a	0.017101366
1	0x3be81637	0.0070827263
2	0x3b8f2788	0.004368726
3	0x3bb12684	0.0054062027
4	0x3c1a53e3	0.009419414
5	0x3b363b0a	0.0027806186

network.9.weight f4 [3, 6]
0	0xbd8b201b	-0.06793233
1	0x3e65b108	0.22430813
2	0xbd676849	-0.05649594
3	0xbef925f3	-0.48661765
4	0x3d8c232e	0.068426475
5	0x3ecaf317	0.39638588
6	0xbe44a9c4	-0.19205385
7	0xbe2ab4d0	-0.16670537
8	0xbddcdd37	-0.10784381
9	0x3e3eb797	0.18624721
10	0x3eaf0871	0.34186128
11	0x3c2e82a2	0.0106512625
12	0x3e445a9b	0.19175188
13	0xbd48ccb2	-0.049023338
14	0x3f35458e	0.7080926
15	0x3e64621e	0.22303054
16	0xbf2afc67	-0.66791385
17	0xbd817b4b	-0.063223444

network.9.bias f4 [3]
0	0x3c0c60d5	0.008568008
1	0xbd97aae6	-0.07405643
2	0xbe1aace2	-0.15105012
